source/_midi-djai/gru.model (torch, 624356 bytes, 14 tensors)

layers.0.weight_ih_l0 f4 [192, 360]
0	0xbc069760	-0.008214802
1	0x3c75a140	0.014992058
2	0x3d9eb3ca	0.07749136
3	0xbd831014	-0.06399551
4	0x3e1cdb91	0.15318133
5	0xbdd72e4a	-0.10506876
6	0x3d96d27c	0.073643655
7	0x3d7e0f94	0.062026575
8	0x3d636af4	0.05552192
9	0x3d82b298	0.0638172
10	0xbd819a68	-0.06328279
11	0xbda6aefa	-0.08138843
12	0xbdc778dc	-0.09739849
13	0xbd745ed4	-0.059660748
14	0x3db4403c	0.08801314
15	0x3d85fc36	0.06542246
16	0x3ba079a0	0.0048973113
17	0xbd08d9b0	-0.033410728
18	0xbd70d658	-0.058798164
19	0x3d8e2fbc	0.06942698
20	0xbdfacb54	-0.12245813
21	0x3ce4e640	0.027941823
22	0xbd11dedc	-0.035612926
23	0x3d16840c	0.036747023
24	0xbd59d3ea	-0.053180613
25	0xbd9d6bb6	-0.0768656
26	0x3d16bfc0	0.03680396
27	0xbdeb9f4e	-0.11504994
28	0xbddb550c	-0.10709581
29	0xbdeed9dc	-0.11662647
30	0xbde843da	-0.11341067
31	0xbdad304a	-0.08456476
32	0x3df539e6	0.11973934
33	0xbd4cf1ac	-0.050035164
34	0x3d9271ca	0.0715061
35	0xbd9dbb1a	-0.077017024
36	0x3dfef6ac	0.12449393
37	0x3c7e0d30	0.015506074
38	0xbdbd6f4c	-0.09249744
39	0x3ecf001b	0.40429768
40	0x3d46e969	0.04856244
41	0x3df49f8e	0.11944495
42	0xbdea662a	-0.114452675
43	0xbe699c02	-0.22813419
44	0x3e7c571c	0.24642605
45	0xbbca95e0	-0.0061824173
46	0x3dffeb14	0.124960095
47	0xbd9ec3ea	-0.077522114
48	0xbd4099ec	-0.04702179
49	0xbdb0f358	-0.08640164
50	0xbda209b0	-0.07912004
51	0x3d7f25ec	0.062292024
52	0x3dd1facc	0.10252914
53	0x3dff3428	0.1246112
54	0x3dd981b0	0.10620439
55	0x3c4e3190	0.012585059
56	0xbde0b632	-0.10972251
57	0xbd6d1820	-0.057884336
58	0x3d45a6d0	0.048254788
59	0x3d08785c	0.03331791
60	0x3ed648fc	0.41852558
61	0x3d1d0d58	0.038342804
62	0xbd12bf44	-0.035826936
63	0x3dcc4c48	0.09975487
64	0xbda85ec6	-0.082212016
65	0xbd08c5e0	-0.033391833
66	0x3dfa2c56	0.12215488
67	0xbcae2c48	-0.02126135
68	0xbdd0c67a	-0.101941064
69	0x3db83f7a	0.08996482
70	0xba586a00	-0.00082555413
71	0x3d2e0690	0.042486727
72	0xbde896b8	-0.11356872
73	0x3d81f8e6	0.06346302
74	0xbd7ba650	-0.061437905
75	0xbd57be90	-0.05267197
76	0x3d188a6c	0.037241384
77	0x3d93a4d0	0.0720917
78	0x3df20920	0.11818147
79	0xbd093e90	-0.03350693
80	0xbd887cc4	-0.06664422
81	0xbdbafb84	-0.09130004
82	0x3dffd44e	0.12491666
83	0x3de83fae	0.11340271
84	0xbdf2970c	-0.11845216
85	0x3b07f280	0.0020743906
86	0x3bf8aae0	0.0075887293
87	0x3d805b14	0.06267372
88	0xbc89c4c0	-0.01681745
89	0x3d120b28	0.03565517
90	0xbd179310	-0.037005484
91	0x3dd5a686	0.104321525
92	0x3c456370	0.0120476335
93	0x3dea9dc8	0.11455876
94	0xbd8d9296	-0.06912725
95	0xbdf89bba	-0.121390775
96	0x3d334f14	0.043776587
97	0xbd814c06	-0.063133284
98	0x3c9a7290	0.018853456
99	0xbd017fa4	-0.03161587
100	0xbc2fa030	-0.010719344
101	0xbd8c7cce	-0.06859742
102	0xbdf4cd0e	-0.119531736
103	0xbd074ab0	-0.033030212
104	0x3cd38b90	0.025823385
105	0xbdb7f8dc	-0.08983013
106	0x39ff3c00	0.00048682094
107	0xbd70c724	-0.058783665
108	0x3eaa6948	0.33283448
109	0x3da21af4	0.07915297
110	0xbd487ef8	-0.04894921
111	0x3d1f0d14	0.03883083
112	0xbd811220	-0.06302285
113	0x3dec75be	0.11545895
114	0x3df1051e	0.11768554
115	0xbd06a38c	-0.032870814
116	0x3d9e7f40	0.07739115
117	0x3e6cc0c3	0.23120408
118	0xbd871024	-0.065948755
119	0x3d292688	0.041296512
120	0x3dd87a30	0.105701804
121	0xbd40cfb4	-0.04707308
122	0xbd17d0a8	-0.037064224
123	0x3d8519ce	0.064990625
124	0x3de89a62	0.11357571
125	0xbd899b5c	-0.067190856
126	0xbd90f852	-0.07078613
127	0xbd919273	-0.07108011
128	0x3daf2124	0.08551243
129	0xbdd8bde6	-0.10583095
130	0x3df2713a	0.118380025
131	0xbdc4fcce	-0.09618531
132	0x3d2b74e4	0.041859522
133	0xbd3fcda4	-0.046826974
134	0xbd8a508e	-0.06753646
135	0x3d84c1dc	0.06482288
136	0x3d2093c0	0.039203405
137	0xbd59a430	-0.053135097
138	0x3aba5e00	0.0014218688
139	0x3d74ce1c	0.059766874
140	0xbdcdec34	-0.10054818
141	0x3dedf5c0	0.11619139
142	0x3d7eea0c	0.062234923
143	0xbda46908	-0.080278456
144	0x3de99f96	0.11407392
145	0x3d92a7fa	0.07160945
146	0x3d6ce7e8	0.05783835
147	0xbc8bbff8	-0.017059311
148	0xbce0dc60	-0.027448833
149	0x3d198818	0.037483305
150	0x3c70c3e0	0.014695138
151	0xbd6b94a0	-0.057514787
152	0xbdcc39b2	-0.09971942
153	0x3cd16890	0.025562555
154	0xbd8b1808	-0.06791693
155	0xbcf99c78	-0.030470118
156	0x3b4fe280	0.0031720698
157	0x3cf939e0	0.030423105
158	0x3d366600	0.04453087
159	0xbd5e5ab8	-0.054285735
160	0xbd958232	-0.073002234
161	0x3dc845ea	0.0977896
162	0x3da4e1d8	0.08050889
163	0x3da17912	0.078844205
164	0xbd510d6c	-0.05103819
165	0x3dfc3c08	0.123161376
166	0x3d699abc	0.05703233
167	0x3dd44dd8	0.1036641
168	0xbc903a50	-0.01760593
169	0x3cac98c0	0.02106893
170	0xbd8e946a	-0.069619015
171	0xbddc5fec	-0.10760483
172	0x3ce5ffc8	0.028076068
173	0xbd2f9228	-0.042863995
174	0xbd8c1ce8	-0.06841451
175	0xbc207ed0	-0.009795859
176	0x3dee187a	0.11625762
177	0xbd7dd278	-0.061968297
178	0x3c37ff70	0.011230335
179	0xbdf08d7a	-0.117457345
180	0xbd41c424	-0.047306195
181	0xbdeaeaca	-0.11470564
182	0x3da9ebe8	0.08296949
183	0x3d00a75c	0.031409606
184	0x3dd546d2	0.104138985
185	0xbd52d41c	-0.051471815
186	0xbdd56246	-0.10419135
187	0xbdb9101a	-0.09036274
188	0xbd40bb84	-0.04705383
189	0x3e024221	0.12720539
190	0x3d28d618	0.0412198
191	0xbd2323f4	-0.03982921
192	0x3d7b59e0	0.06136501
193	0x3ed813cc	0.42202604
194	0xbd11f4e0	-0.03563392
195	0x3dc158b8	0.0944075
196	0x3d71c6dc	0.059027538
197	0xbe4109c0	-0.18851376
198	0x3db13db4	0.08654347
199	0x3d94581a	0.072433665
200	0x3d8d879d	0.06910632
201	0xbe48c654	-0.19606906
202	0xbd44fe34	-0.04809399
203	0x3dffb11e	0.12484954
204	0x3df560e4	0.11981371
205	0x3e594fde	0.21221873
206	0x3b84a9e0	0.004048571
207	0x3df7333c	0.12070319
208	0xbdc63606	-0.09678273
209	0xbdce7fd8	-0.10082978
210	0xbc0a2f45	-0.0084341215
211	0xbc479f10	-0.01218392
212	0x3d68c6f4	0.05683036
213	0x3c90f4b8	0.017694816
214	0xbd28abe0	-0.041179538
215	0xbd853208	-0.06503683
216	0x3d86fd3b	0.06591269
217	0xbd6f7154	-0.058457687
218	0xbdebd56c	-0.11515316
219	0xbdc666aa	-0.0968755
220	0x39b4d600	0.00034491718
221	0xbdb783ba	-0.08960672
222	0xbd89ad2a	-0.067224815
223	0xbd869b06	-0.06572537
224	0x3d664534	0.05621834
225	0x3cbf13f8	0.023324952
226	0x3d70ff9c	0.058837518
227	0x3c49c810	0.012315765
228	0xbcdfa050	-0.027298123
229	0xbce31b00	-0.027722836
230	0xbd4dde10	-0.050260603
231	0xbdf5b8ee	-0.11998163
232	0xbd0714c4	-0.032978788
233	0xbc4f18b0	-0.012640163
234	0xbdb12b8e	-0.086508855
235	0xbd424c18	-0.04743585
236	0x3d550384	0.052005306
237	0xbdee7198	-0.1164276
238	0x3cc8c200	0.024506569
239	0x3afea180	0.0019426793
240	0xbc725220	-0.014790088
241	0x3d4df0dc	0.05027853
242	0x3db209b6	0.086932585
243	0x3c4e5650	0.012593821
244	0xbd8235d6	-0.06357925
245	0x3dbe160a	0.09281547
246	0x3ceb8860	0.028751552
247	0x3debdcce	0.115167245
248	0xbded1696	-0.115765736
249	0xbd933e84	-0.07189658
250	0xbd19c324	-0.037539616
251	0xbda7ca56	-0.081928894
252	0xbdb7f47e	-0.0898218
253	0xbda83d54	-0.082148224
254	0x3cffadd0	0.03121081
255	0xbd7d17c0	-0.061790228

layers.0.weight_hh_l0 f4 [192, 64]
0	0x3dfd7e20	0.12377572
1	0xbc742855	-0.014902194
2	0xbd4d5e9e	-0.050139062
3	0xbc33ab06	-0.010966068
4	0xbcb9c6e0	-0.022677839
5	0xbcb08270	-0.021546572
6	0xbbfd0ffa	-0.007722852
7	0xbd253f0c	-0.04034333
8	0x3dc44a13	0.09584441
9	0xbd892f06	-0.06698422
10	0x3cb9e526	0.022692274
11	0xbc87c26a	-0.016572196
12	0x3dfc6462	0.12323834
13	0x3a38f3d8	0.00070553785
14	0xbdbfff1a	-0.09374829
15	0xbda70af7	-0.08156388
16	0x3d2b5c99	0.041836355
17	0x3d820606	0.06348805
18	0xbdda3dc4	-0.10656312
19	0x3d6e0bdd	0.058116782
20	0xbe36815c	-0.17822784
21	0xbd524e8e	-0.051344447
22	0xbdcbde3c	-0.09954497
23	0xbd978f32	-0.07400359
24	0xbdd1b5fa	-0.102397874
25	0xbdbc7df9	-0.09203715
26	0xbc826bcd	-0.015920544
27	0xbd06e532	-0.03293342
28	0x3c724418	0.014786743
29	0x3cc2738c	0.023736738
30	0xbe1494dd	-0.14509912
31	0x3e0307e3	0.12795977
32	0x3da7fd2a	0.08202584
33	0xbdb6c7c4	-0.08924821
34	0xbda8121b	-0.08206578
35	0xbd8cb0c6	-0.06869654
36	0x3c683ce4	0.014174674
37	0x3cd9fd62	0.02661008
38	0x3e02024f	0.12696193
39	0xbcb046a6	-0.021518063
40	0x3dc576e9	0.09641821
41	0x3cb6ce36	0.022315126
42	0xbe160fef	-0.14654516
43	0xbe04c81f	-0.12966965
44	0x3ddfc74d	0.109266855
45	0x3d1ae259	0.03781352
46	0x3d7cff2a	0.06176678
47	0x3deaa242	0.114567295
48	0xbd5c647f	-0.053806778
49	0xbd3863d3	-0.045017075
50	0xbbffe301	-0.0078090434
51	0xbd782745	-0.060584325
52	0x39df0e2f	0.00042544442
53	0xbdc3b01e	-0.09555076
54	0xbdc4df26	-0.09612875
55	0x3d841cec	0.06450829
56	0xbd47df7a	-0.04879711
57	0x3e02b760	0.12765265
58	0x3dc08139	0.09399647
59	0x3dd0084b	0.10157832
60	0xbe35363a	-0.17696467
61	0xbe0e8eb8	-0.1392163
62	0x3dbd108a	0.0923167
63	0x3e1e043b	0.15431301
64	0x3e1f763e	0.1557245
65	0x3d899506	0.06717877
66	0xbdad4a93	-0.084614895
67	0xbc8c4ebe	-0.017127391
68	0xbd35fd47	-0.044430997
69	0x3d7cf5a2	0.06175769
70	0x3e137ac5	0.14402302
71	0x3df2895f	0.11842608
72	0x3d321f1b	0.043486696
73	0xbd323c1d	-0.04351436
74	0xbd572800	-0.05252838
75	0xbdc4efe3	-0.09616067
76	0x3cddefb6	0.027091842
77	0xbdbc1d83	-0.091853164
78	0x3c96762d	0.018366897
79	0xbe1a3cd9	-0.15062274
80	0xbdf911be	-0.12161587
81	0xba969513	-0.0011488519
82	0xbdb7b8a1	-0.08970762
83	0x3dc8ae79	0.09798903
84	0xbdb3a878	-0.08772367
85	0xbde14726	-0.109998986
86	0x3db30635	0.08741418
87	0x3d9fdf1d	0.07806227
88	0x3c8e77cd	0.01739111
89	0x3d104ccc	0.03522949
90	0xbcdc3925	-0.026882717
91	0x3da5ef2f	0.08102261
92	0xbd6957f4	-0.056968644
93	0xbd48b4c9	-0.049000535
94	0xbdc0536e	-0.09390913
95	0xbdcc722d	-0.09982715
96	0x3e1a6489	0.15077414
97	0xbe04b7f3	-0.12960796
98	0xbd87f557	-0.06638592
99	0x3de0a01a	0.10968037
100	0xbd0b07a2	-0.033942826
101	0x3d114ee6	0.035475634
102	0x3d8bb304	0.06821254
103	0x3e110e35	0.14165576
104	0x3d1ab4b9	0.037770007
105	0xbbbcf3fc	-0.00576639
106	0xbd9460a1	-0.07244993
107	0x3c673689	0.014112123
108	0x3dacc016	0.08435075
109	0xbd8b7098	-0.06808585
110	0x3d4305bc	0.04761289
111	0xbdca4131	-0.098757155
112	0xbdd0947a	-0.1018457
113	0xbd32a592	-0.04361493
114	0xbdadf824	-0.08494595
115	0xbc066c59	-0.008204543
116	0x3d1a2d99	0.03764114
117	0xbd61f1c9	-0.055162225
118	0xb9c209f2	-0.00037009973
119	0xbcbecbe5	-0.023290584
120	0x3dd196eb	0.102338634
121	0x3bd9a351	0.0066417833
122	0x3dd0fd77	0.102045946
123	0xbe06cfed	-0.13165255
124	0xbca86a67	-0.02055855
125	0x3dad9736	0.08476107
126	0x3c2ef8c8	0.010679431
127	0x3cb34f80	0.021888494
128	0x3c9a87b7	0.018863542
129	0xbd4519db	-0.04812036
130	0xbd955904	-0.07292369
131	0xbdc1e9bf	-0.09468412
132	0xbc91639e	-0.017747696
133	0xbdfd1c30	-0.12358892
134	0x3cecc3c1	0.028901936
135	0x3dcb817d	0.09936807
136	0xbdbdfb9c	-0.09276506
137	0x3dda7eae	0.106686935
138	0xbd6c9eed	-0.05776875
139	0x3cabe4c8	0.020983115
140	0x3cbbe309	0.022935407
141	0x3c40fdda	0.011779273
142	0xbd0b45cd	-0.034002114
143	0x3b766116	0.0037594489
144	0x3dbf2cd9	0.09334726
145	0xbd09e7e1	-0.033668403
146	0xbd8fd5d6	-0.07023208
147	0xbdb55067	-0.08853226
148	0xbbe71d16	-0.007053028
149	0xbcf2716e	-0.029595103
150	0xbdde1722	-0.10844256
151	0xbdce1476	-0.10062496
152	0x3dab30f9	0.0835895
153	0xbe0c7d22	-0.1371961
154	0x3d883d8a	0.06652363
155	0xbdfb036f	-0.12256514
156	0xbd87d34a	-0.06632097
157	0xbc7c62c8	-0.015404411
158	0x3c92685a	0.017872024
159	0xbcd735b4	-0.026270725
160	0x3d4b8593	0.049687933
161	0x3e0d0765	0.13772352
162	0xbd605435	-0.054767806
163	0x3b334000	0.002735138
164	0xbd236fb9	-0.03990147
165	0xbd08dc54	-0.033413246
166	0xbdab92f2	-0.08377637
167	0x3d411669	0.047140513
168	0x3de07771	0.10960282
169	0x3c4c7dde	0.012481181
170	0x3d4dcd7c	0.050244793
171	0x3d6b9fd0	0.057525456
172	0x3b39ce1d	0.0028351613
173	0x3dd2c849	0.102921076
174	0x3b704bd4	0.003666629
175	0xbdd6731c	-0.10471174
176	0xbe1ad5e9	-0.15120663
177	0xbddddc89	-0.10833079
178	0x3df8ab4e	0.12142049
179	0xbdab6e37	-0.08370631
180	0x3db1eb06	0.08687405
181	0x3d81740e	0.06320964
182	0xbe85b113	-0.2611166
183	0x3c80cf87	0.015723957
184	0x3d06f19d	0.032945264
185	0xbb861cb2	-0.004092776
186	0xbd9447f0	-0.072402835
187	0x3d8ae31f	0.06781601
188	0x3ca6d648	0.02036585
189	0xbd60a028	-0.054840237
190	0xbd11888c	-0.035530612
191	0x3e28cdc8	0.1648475
192	0x3de235b6	0.11045401
193	0x3d8bc5e7	0.06824856
194	0x3de0a514	0.10968986
195	0xbd740120	-0.059571385
196	0x3cd79470	0.026315898
197	0x3cb78588	0.02240254
198	0x3db25a32	0.0870861
199	0xbd1fcedb	-0.039015632
200	0xbdd669a2	-0.104693666
201	0x3dfda992	0.123858586
202	0xbd1da35d	-0.038485873
203	0x3cd65047	0.026161326
204	0xbe3bee07	-0.18352519
205	0x3d18cfff	0.037307736
206	0x3ccd213a	0.025040258
207	0x3d98c2ce	0.07459031
208	0xbd823227	-0.06357222
209	0x3e0a6c93	0.1351798
210	0xbcd22856	-0.025654
211	0xbd9f6738	-0.07783359
212	0xbdc6292d	-0.096758224
213	0x3daae076	0.08343594
214	0x3d84ac3c	0.064781636
215	0x3d6dbeb1	0.058043186
216	0x3d86627d	0.06561754
217	0xbdb6d322	-0.08926989
218	0x3d323672	0.043508954
219	0xbdcb6942	-0.09932186
220	0xbe3e935f	-0.18610905
221	0xbc596a1a	-0.0132699255
222	0x3d2401cc	0.040040776
223	0xbd2d7b5e	-0.04235398
224	0x3d8ffa5b	0.070301734
225	0x3e2726c0	0.16323376
226	0xbd561033	-0.052261543
227	0x3ca79d28	0.02046068
228	0x3dc099c6	0.0940433
229	0xbc97dbca	-0.01853742
230	0x3e34c80d	0.17654438
231	0xbd6cdb3e	-0.057826273
232	0x3b62d736	0.003461314
233	0xbdcb3375	-0.09921924
234	0x3e257b9f	0.16160439
235	0x3d9a534f	0.07535421
236	0xbd95fb55	-0.073233284
237	0x3c2af5af	0.010434552
238	0x3dcb3b1a	0.09923382
239	0xbd6051af	-0.0547654
240	0xbda4200f	-0.08013927
241	0xbe0c5f1d	-0.13708158
242	0x3dc2e61e	0.095165476
243	0x3dd3e523	0.10346439
244	0x3dfaf7d1	0.122542985
245	0x3c2b1cc5	0.010443871
246	0xbc9bd51f	-0.019022522
247	0xbdb0b11b	-0.0862753
248	0x3c77333a	0.015087897
249	0xbda47da1	-0.08031774
250	0xbd71391c	-0.058892354
251	0x3d9f32c4	0.07773355
252	0xbdb128ec	-0.08650383
253	0xbdb5798c	-0.08861074
254	0xbdb22a66	-0.08699493
255	0xbc03da46	-0.008047646

layers.0.bias_ih_l0 f4 [192]
0	0xbc6aaa92	-0.014322894
1	0x3e13ac3d	0.14421172
2	0xbd14e1ef	-0.03634828
3	0xbcf7c4bf	-0.030245183
4	0x3e2259d5	0.1585458
5	0xbe240149	-0.16016115
6	0x3c8dfb8d	0.017331863
7	0xbcddf027	-0.027092053
8	0xbd9a3392	-0.075293675
9	0x3e14b48e	0.14522001
10	0xbd3c5bfb	-0.045986157
11	0xbd2f39d4	-0.04277976
12	0xbd9acf0c	-0.07559022
13	0x3df13994	0.1177856
14	0xbd1924c0	-0.037388563
15	0x3d8eda5d	0.06975243
16	0x3e0522cd	0.13001557
17	0xbcd36d8c	-0.025809072
18	0xbcd39466	-0.025827598
19	0x3d686695	0.056738455
20	0x3cc59f4e	0.024123814
21	0xbd9441c4	-0.07239106
22	0x3de30866	0.11085586
23	0x3d83b8cb	0.06431731
24	0xbe04e4c6	-0.12977895
25	0x3cdcc9ec	0.026951753
26	0xbe266f37	-0.16253363
27	0xbbf29f86	-0.0074042706
28	0x3e5b8866	0.2143875
29	0x3d9b9620	0.075969934
30	0x3d8ad8f1	0.067796595
31	0xbd3538ca	-0.04424361
32	0xbda13540	-0.07871485
33	0xbd14560c	-0.036214873
34	0x3d9f58a4	0.07780579
35	0x3dd46db6	0.10372488
36	0xbd2266f3	-0.03964896
37	0x3d848152	0.064699784
38	0xbc17d518	-0.009267114
39	0x3e14f2a3	0.14545684
40	0xbc1bdb29	-0.009512701
41	0xbd0381e5	-0.0321063
42	0xbcdd8ac0	-0.0270437
43	0xbd85a615	-0.06525818
44	0x3e18cf12	0.14922741
45	0x3e1203a1	0.14259197
46	0xbc5f53a6	-0.013630783
47	0x3c37a6d6	0.01120921
48	0x3d9893ad	0.07450042
49	0x3df72bf3	0.120689295
50	0xbce27b96	-0.027646821
51	0xbdafbbe8	-0.08580762
52	0x3da69a3d	0.08134887
53	0xbde0498f	-0.1095153
54	0xbd92b56c	-0.0716351
55	0x3d03e393	0.032199454
56	0x3d5be86c	0.05368845
57	0xbd6242cf	-0.055239495
58	0xbda1af55	-0.0789477
59	0x3dbe49ff	0.092914574
60	0xbb4e78f8	-0.0031505208
61	0xbd937da0	-0.072016954
62	0x3c1dc7f5	0.009630193
63	0xbe233956	-0.1593984
64	0xbe51c7ed	-0.20486422
65	0xbe5ba5cd	-0.21449967
66	0xbe601dc0	-0.21886349
67	0xbe59ddf3	-0.21276073
68	0xbdb7b5c2	-0.089702144
69	0xbda9bb47	-0.082876734
70	0xbe68f148	-0.22748291
71	0xbe502aac	-0.20328778
72	0xbe5e0f07	-0.2168542
73	0xbe0b22bc	-0.13587469
74	0xbe70f444	-0.2353068
75	0xbd713c55	-0.058895428
76	0xbd700bfd	-0.058605183
77	0xbe766294	-0.24061042
78	0xbd56820c	-0.052370116
79	0xbd5fdd48	-0.05465439
80	0xbdcd1634	-0.100140005
81	0xbdee86e6	-0.116468236
82	0xbe35f2ba	-0.17768374
83	0xbe5083d0	-0.20362782
84	0xbeab72c8	-0.3348601
85	0xbe4b1d6e	-0.19835445
86	0xbe8b759a	-0.2723816
87	0xbe363a93	-0.17795782
88	0xbe29ea3e	-0.16593263
89	0xbe0577de	-0.13034007
90	0xbdf9c794	-0.1219627
91	0xbdf7884f	-0.12086546
92	0xbe800614	-0.25004637
93	0xbe57bf57	-0.21069084
94	0xbe0ae29e	-0.1356301
95	0xbd95ec22	-0.073204294
96	0xbe09e24f	-0.13465236
97	0xbddbf0f2	-0.10739316
98	0xbd92b55d	-0.071634986
99	0x3d37bdfc	0.044858918
100	0x3cf73d7b	0.030180683
101	0xbe8d18f2	-0.27558094
102	0xbda4fa95	-0.08055607
103	0xbea09e85	-0.3137094
104	0xbe6005ca	-0.21877208
105	0xbe99b1df	-0.30018517
106	0xbebe08a7	-0.37115976
107	0xbe55fc2f	-0.20896982
108	0xbe704e95	-0.23467477
109	0xbe98447b	-0.29739746
110	0xbe73d7c2	-0.23812774
111	0xbe529b0d	-0.2056696
112	0xbeb038aa	-0.3441823
113	0xbd77fe30	-0.060545146
114	0xbe0d8212	-0.13819149
115	0xbe9bb6b2	-0.30412823
116	0xbd5cc541	-0.053899053
117	0xbdb726cf	-0.08942949
118	0xbeb06758	-0.34453845
119	0xbe55de5e	-0.20885608
120	0xbe5762ac	-0.21033734
121	0xbdbf9a67	-0.09355622
122	0xbcb74392	-0.022371087
123	0xbdb003b3	-0.085944556
124	0xbd5bf201	-0.05369759
125	0xbe2b8247	-0.16748916
126	0xbc9d7e56	-0.01922528
127	0xbe33e03c	-0.17566007
128	0x3e02957f	0.1275234
129	0xbdf9909b	-0.121857844
130	0xbd35786b	-0.044304293
131	0x3d8d1f52	0.068907395
132	0x3d51b960	0.051202178
133	0xbe215909	-0.1575662
134	0x3e0d0099	0.13769759
135	0x3e07d75d	0.13265748
136	0x3e0895a2	0.1333833
137	0xbdcd33a8	-0.10019618
138	0xbe2ef076	-0.17083916
139	0x3de06dfb	0.10958477
140	0x3e060e9d	0.13091512
141	0x3e050664	0.12990719
142	0xbe0512e0	-0.12995481
143	0xbe233ed0	-0.1594193
144	0xbde5b9f6	-0.1121711
145	0x3a346241	0.0006881096
146	0xbe1dff81	-0.15429498
147	0xbe1e3db8	-0.15453231
148	0xbdf1208b	-0.11773785
149	0xbe2ff8f5	-0.17184813
150	0x3d871482	0.065957084
151	0xbda09142	-0.07840206
152	0xbe23e163	-0.16003947
153	0xbdf600bf	-0.12011861
154	0xbdc2bc05	-0.09508518
155	0xbde391bc	-0.11111781
156	0x3d646e6c	0.05576937
157	0xbd36d740	-0.044638872
158	0xbdf61dbf	-0.12017392
159	0xbd9e7394	-0.077368885
160	0x3dd79edd	0.10528348
161	0x3ba49145	0.0050222003
162	0x3e02b5e0	0.12764692
163	0xbdb26ca4	-0.08712128
164	0x3df7097c	0.12062356
165	0x3e13a3ba	0.14417925
166	0x3e1b70dd	0.15179773
167	0xbd2c5770	-0.042075574
168	0x3e169e47	0.14708816
169	0x3defdcbe	0.11712025
170	0xbd945502	-0.072427765
171	0xbe0dbc24	-0.13841301
172	0x3d435e3a	0.047697283
173	0x3da101b1	0.07861651
174	0x3e278804	0.1636048
175	0x3e1cf5df	0.15328167
176	0xbd09e4bf	-0.033665415
177	0xbdb0718f	-0.086154096
178	0x3e26745a	0.16255322
179	0x3e0ef4cd	0.13960572
180	0x3dcc00ce	0.09961091
181	0xbd97e9ea	-0.074176624
182	0xbe3c18a1	-0.1836877
183	0x3e28b452	0.16475037
184	0x3da21300	0.0791378
185	0x3e19775f	0.14986943
186	0xbdaf9a5b	-0.08574363
187	0xbe2db810	-0.16964746
188	0xbd89ac4a	-0.06722315
189	0xbd2fba61	-0.042902354
190	0xbe0c79ed	-0.13718386
191	0x3e258a8f	0.16166137

layers.0.bias_hh_l0 f4 [192]
0	0x3d646612	0.055761404
1	0x3e192f4e	0.14959452
2	0x3e185a93	0.14878301
3	0xbd9712fb	-0.07376667
4	0x3dc57033	0.09640541
5	0xbe03effb	-0.12884514
6	0x3d3a3034	0.045456126
7	0xbd8372ff	-0.06418418
8	0xbdc29416	-0.095009014
9	0xbd93db08	-0.07219511
10	0x3dd4ec18	0.10396594
11	0x3e05ea19	0.13077582
12	0x3c12e57d	0.008965847
13	0x3bc5ff7b	0.0060424185
14	0xbd0c333c	-0.03422855
15	0xbd8faa2a	-0.07014878
16	0x3d3c529d	0.045977224
17	0xbdd0d29d	-0.10196421
18	0xbd7dbe98	-0.061949342
19	0x3dce04ec	0.100595325
20	0xbcbcd62b	-0.023051342
21	0xbd70378a	-0.058646716
22	0xbd545d2a	-0.05184666
23	0x3df7ac65	0.120934285
24	0x3b833f8e	0.004005379
25	0xbd7093c5	-0.058734674
26	0x3bb03cf9	0.0053783623
27	0x3d76a711	0.06021792
28	0x3d9b1f6d	0.07574353
29	0x3d8c206b	0.06842121
30	0x3d035a29	0.032068405
31	0x3d52fcff	0.051510807
32	0x3dc84a4a	0.097797945
33	0xbda7c12e	-0.08191143
34	0x3dd15068	0.102204144
35	0xbab5d7d1	-0.0013873522
36	0x3dd403af	0.10352265
37	0x3d279c3d	0.040920485
38	0xbc05956d	-0.008153302
39	0x3e853317	0.2601554
40	0xbaf3c013	-0.0018596671
41	0xbdc3fe68	-0.095700085
42	0xbd902eb7	-0.0704016
43	0x3d1e216b	0.03860609
44	0x3dbad1e2	0.09122063
45	0x3dbe25bd	0.09284542
46	0xbdaa8812	-0.083267346
47	0xbd1b3b5e	-0.037898414
48	0x3e23f7be	0.16012475
49	0x3c36ef7a	0.011165494
50	0x3e08b4b3	0.13350181
51	0xbddc9e7e	-0.107724175
52	0x3e3fec8f	0.18742584
53	0xbca5d71e	-0.020244177
54	0xbe18cedc	-0.1492266
55	0x3d8119ca	0.06303747
56	0xbdef876d	-0.11695752
57	0x3df6bc05	0.12047581
58	0x3db73bd9	0.08946962
59	0x3dbe4823	0.09291103
60	0x3dddfbbd	0.10839031
61	0x3e0e15dc	0.13875526
62	0x3d6f3813	0.058403086
63	0xbb6fa03a	-0.0036564008
64	0xbd2e0816	-0.04248818
65	0xbda931a3	-0.082614206
66	0xbe8bb50e	-0.2728657
67	0xbe063fc6	-0.13110265
68	0xbd813588	-0.063090384
69	0xbe711cb9	-0.23546113
70	0xbe2605b3	-0.16213112
71	0xbe314231	-0.17310406
72	0xbe082119	-0.13293876
73	0xbcd3f6ab	-0.025874456
74	0xbe217108	-0.15765774
75	0xbe59c158	-0.21265161
76	0xbde539a7	-0.11192637
77	0xbda29f1e	-0.079405054
78	0x3d68a295	0.056795675
79	0xbe0e90bf	-0.13922404
80	0xbdec39a7	-0.11534434
81	0xbd9e20fe	-0.077211365
82	0xbe6e4dff	-0.2327194
83	0xbe49dd9d	-0.19713445
84	0xbe255979	-0.16147412
85	0xbec44a78	-0.38338065
86	0xbe570731	-0.20998837
87	0xbd8b0d67	-0.06789666
88	0xbd61198b	-0.054956
89	0xbd6ed7ff	-0.05831146
90	0xbdb56b9a	-0.08858414
91	0xbe188d6f	-0.14897703
92	0xbec82a6a	-0.3909486
93	0xbe3c9721	-0.18417026
94	0xbe876def	-0.2645106
95	0xbe6b56cc	-0.22982329
96	0xbe53d1b1	-0.2068546
97	0xbe029682	-0.12752727
98	0xbd0d7a34	-0.03454037
99	0x3d0cd6f4	0.034384683
100	0x3c9b84d5	0.018984238
101	0xbe1a46a5	-0.15066011
102	0xbe80a880	-0.25128555
103	0xbe93d65f	-0.2887449
104	0xbe587330	-0.2113769
105	0xbe05b0dc	-0.13055748
106	0xbe71b4c6	-0.23604116
107	0xbdab40de	-0.08361982
108	0xbe0f07c6	-0.13967809
109	0xbe69e7d9	-0.22842349
110	0xbdd3f64f	-0.10349714
111	0xbe6e1d54	-0.23253375
112	0xbe6b5a1b	-0.22983591
113	0xbe8928ef	-0.26789042
114	0xbd92970d	-0.07157717
115	0xbe718100	-0.23584366
116	0xbd031d77	-0.03201052
117	0xbdca5d1d	-0.09881041
118	0xbe94fd22	-0.29099375
119	0xbde47902	-0.11155893
120	0xbcbaaaf6	-0.022786599
121	0x3d3e97dd	0.046531547
122	0xbded2f5d	-0.115812995
123	0x3bef7b61	0.007308409
124	0xbd2d1a74	-0.042261556
125	0xbe37f849	-0.17965807
126	0xbde9121f	-0.113804094
127	0xbe6d3c9c	-0.23167652
128	0x3d9b5bdb	0.075858794
129	0xbdf63897	-0.120225124
130	0xbdc2c52e	-0.09510265
131	0x3e19a174	0.15002996
132	0x3dcd0292	0.10010256
133	0x3b902ad1	0.0043996354
134	0x3d30cb5c	0.04316269
135	0xba51b6f8	-0.0007999982
136	0x3de64301	0.11243249
137	0xbdf9c805	-0.12196354
138	0xbe1523b4	-0.14564401
139	0x3dd28d05	0.102808036
140	0x3d57a867	0.052650835
141	0x3d02d285	0.03193905
142	0xbd6682a3	-0.05627693
143	0xbe0d262c	-0.13784093
144	0xbd9d41da	-0.07678576
145	0x3e411ccc	0.18858641
146	0x3cf9915b	0.030464819
147	0xbcabebc4	-0.020986445
148	0xbe2d4f88	-0.1692487
149	0xbcb632e8	-0.02224107
150	0x3e022e70	0.12713027
151	0xbd9925ee	-0.07477938
152	0xbc933cf4	-0.0179734
153	0xbe31e35a	-0.17371884
154	0x3d37e1be	0.04489302
155	0xbd8acb6c	-0.06777081
156	0x3e35ec94	0.17766029
157	0xbe20e54b	-0.15712468
158	0xbe391c2e	-0.18077156
159	0x3db4a9be	0.08821438
160	0x3dba0f9d	0.09085009
161	0xbd3c0eed	-0.04591267
162	0x3c77b4fb	0.015118833
163	0xbc8b608f	-0.017013816
164	0x3c80e610	0.015734702
165	0xbc4f7d7f	-0.012664198
166	0x3e19bc50	0.15013242
167	0xbe2a77f5	-0.16647322
168	0x3dcc1a64	0.09965971
169	0xbc731871	-0.01483737
170	0xbd40b7de	-0.04705035
171	0x3d393511	0.045216624
172	0x3e1f9443	0.15583901
173	0x3e6f0ff8	0.23345935
174	0x3da88d92	0.082301274
175	0x3df24857	0.11830204
176	0xbe700d96	-0.23442683
177	0xbdc1b360	-0.09458041
178	0x3dab65f1	0.08369053
179	0xbcbf1a53	-0.023327982
180	0x3de19fd9	0.11016817
181	0xbd66f816	-0.056388937
182	0x3d84e956	0.06489818
183	0x3ce11b51	0.027478846
184	0xbd4e168b	-0.050314467
185	0x3d22c29e	0.039736383
186	0xbde50e42	-0.1118436
187	0xbb93e16e	-0.0045129573
188	0xbb89a06b	-0.0042000315
189	0xbd6480ca	-0.055786885
190	0xbddf0d01	-0.10891152
191	0xbd026f91	-0.03184468

layers.1.weight_ih_l0 f4 [192, 64]
0	0xbcd117b6	-0.025524002
1	0xbdda827d	-0.1066942
2	0xbd6b64e1	-0.057469252
3	0x3dc1a1b0	0.094546676
4	0x3dba5480	0.09098148
5	0x3c900146	0.017578732
6	0x3da9f4b5	0.08298627
7	0x3de5fdd2	0.11230053
8	0xbd913181	-0.0708952
9	0x3d41adab	0.047284763
10	0xbe0c506b	-0.13702552
11	0x3dd6ab09	0.10481841
12	0x3e15ac76	0.1461657
13	0x3dd4966a	0.10380252
14	0xbcbf65be	-0.023363944
15	0xbe10b6c0	-0.14132214
16	0x3d100335	0.03515931
17	0x3d6f11d2	0.058366604
18	0x3b93e88b	0.0045138053
19	0xbe108ff8	-0.1411742
20	0xbe0ea048	-0.1392833
21	0x39f693af	0.0004703081
22	0x3de8761c	0.113506526
23	0xbc98d03c	-0.018653981
24	0x3db1c1c1	0.08679534
25	0xbdcb74f7	-0.09934419
26	0x3c9660b4	0.018356659
27	0x3c80c1fc	0.015717499
28	0xbcbbf8be	-0.022945758
29	0xbd8450aa	-0.06460698
30	0x3da1da64	0.07902983
31	0x3d172c32	0.036907382
32	0xbcc3a421	-0.023881974
33	0x3b8071b0	0.0039198026
34	0xbdb1a012	-0.08673109
35	0x3ca466cc	0.020068549
36	0x3e153a98	0.14573133
37	0x3d1f6246	0.03891208
38	0x3dd68891	0.10475267
39	0x3c4cacd0	0.012492374
40	0x3dce77ab	0.100814186
41	0x3db5c4ae	0.08875404
42	0xbd6fd98a	-0.05855707
43	0xbe00e670	-0.12587905
44	0x3c2f45a9	0.010697761
45	0x3dee5f2b	0.116392456
46	0x3dfe8a2a	0.124286965
47	0x3da60b70	0.0810765
48	0xbda0acaf	-0.07845437
49	0x3ca43d52	0.020048771
50	0xbdc4e953	-0.096148156
51	0x3c4993cc	0.012303304
52	0xbd25801d	-0.04040538
53	0xbe0e61cf	-0.13904499
54	0x3bdc6221	0.006725565
55	0xbc52cef0	-0.012866721
56	0x3c6ae20b	0.014336119
57	0x3dad741d	0.084694125
58	0xbd2ebb70	-0.042659223
59	0xbe0b8179	-0.13623609
60	0xbd23278c	-0.039832637
61	0x3d95c87c	0.0731363
62	0xbdbda51e	-0.09260009
63	0x3e12b741	0.14327718
64	0xbdfb89b3	-0.122821234
65	0xbdf5ca4e	-0.12001477
66	0xbd8f6c7f	-0.07003116
67	0xbdcd616b	-0.10028347
68	0x3cc89951	0.02448717
69	0xbd4c7245	-0.049913663
70	0xbdc6805b	-0.096924506
71	0x3caf68e0	0.021412313
72	0x3d80d71c	0.06291029
73	0xbd41f117	-0.04734906
74	0xbd9a1b1c	-0.07524702
75	0x3e42e9ad	0.19034453
76	0x3dfca55c	0.12336227
77	0x3e0427c9	0.12905802
78	0x3da20e77	0.07912915
79	0x3dcce3bf	0.100043766
80	0xbe008282	-0.12549785
81	0x3d8625f6	0.06550209
82	0xbe419e08	-0.1890794
83	0xbc5fdb92	-0.0136631895
84	0xbe8ce2f5	-0.27516904
85	0xbe4ea9f3	-0.20182018
86	0xbbb15433	-0.0054116487
87	0x3db96c3c	0.09053847
88	0xbda263e3	-0.07929208
89	0x3d95a22b	0.07306322
90	0xbda92fec	-0.082610935
91	0xbe05225c	-0.13001388
92	0x3dd1409a	0.102174
93	0x3e27472d	0.16335745
94	0xbc1c0a2e	-0.009523911
95	0xbe64d1eb	-0.22345702
96	0x3dcf48a7	0.10121279
97	0x3d3a69c5	0.045511026
98	0x3c084297	0.0083166575
99	0x3d3287c9	0.043586526
100	0xbd9b0160	-0.07568622
101	0x3e584a52	0.21122101
102	0xbc0eac82	-0.008708121
103	0xbe5384e5	-0.20656164
104	0x3d2db151	0.04240543
105	0xbdf41692	-0.119183674
106	0xbe61627f	-0.2201023
107	0x3da0693a	0.078325704
108	0xbd262645	-0.04056384
109	0xbd3fc4f9	-0.046818707
110	0x3d9b008b	0.07568463
111	0xbdf8ca38	-0.12147945
112	0xbe283497	-0.16426311
113	0xbdfd82df	-0.12378477
114	0x3e02497c	0.12723345
115	0x3e8f3068	0.2796662
116	0xbe3e95b2	-0.18611792
117	0x3d20f337	0.039294448
118	0xbe84dfee	-0.25952095
119	0xbda5ed7e	-0.08101939
120	0xbdd3456a	-0.10315974
121	0x3d8f235a	0.06989165
122	0xbd8082bb	-0.06274935
123	0x3d9d4626	0.076793954
124	0x3e8d9290	0.2765088
125	0x3c3c8edf	0.0115086725
126	0x3dd62cdc	0.10457775
127	0xbd07b0fe	-0.033127777
128	0xbdd6edf0	-0.10494602
129	0x3df61bb2	0.12017001
130	0x3cbbb2a4	0.02291233
131	0x3dd82ea4	0.10555771
132	0xbd4b14d4	-0.04958041
133	0xbdccfbd8	-0.10008973
134	0xbdc73caa	-0.097283676
135	0xbdf566b8	-0.11982483
136	0x3d807f4e	0.062742814
137	0x3d4f9751	0.050681416
138	0x3dcf23fa	0.10114284
139	0xbe12d937	-0.14340673
140	0x3cb16fb1	0.021659704
141	0xbd9f5778	-0.07780355
142	0x3d85eea1	0.065396555
143	0x3d86af1c	0.06576368
144	0xbd927de2	-0.071529165
145	0xbde0ab28	-0.109701455
146	0x3e39226d	0.18079539
147	0x3c807a10	0.015683204
148	0x3e24b672	0.16085222
149	0x3e562dae	0.20915863
150	0x3c59de50	0.013297632
151	0xbd106adb	-0.035258155
152	0x3ded7ba0	0.11595845
153	0x3d834fdb	0.064117156
154	0x3d958714	0.07301155
155	0x3c8ce827	0.017200543
156	0xbe4dd11e	-0.20099303
157	0xbdeda315	-0.11603371
158	0x3dfa11b6	0.12210409
159	0xbdbe1b01	-0.09282494
160	0xbde2f80d	-0.11082468
161	0xbd462478	-0.048374623
162	0xbdce698f	-0.100787275
163	0x3d2a0835	0.041511733
164	0xbdbf4b6c	-0.093405575
165	0xbe4a6f9d	-0.1976914
166	0x3d7a7a39	0.061151717
167	0x3bd887cd	0.0066079856
168	0x3dc2f426	0.09519224
169	0x3e496cfb	0.19670479
170	0x3e1fd72d	0.15609427
171	0xbd88ab7d	-0.06673334
172	0xbdd6a8b3	-0.104813956
173	0xbe5c3313	-0.21503858
174	0x3cde5b45	0.02714313
175	0xbd939f74	-0.07208148
176	0x3ec2b305	0.38027206
177	0x3dd71eeb	0.10503944
178	0x3d27583b	0.040855628
179	0xbe08f5ee	-0.13375065
180	0xbde6d754	-0.11271539
181	0xbc605a83	-0.013693455
182	0x3eb699b9	0.35664156
183	0x3d9aeed2	0.075650826
184	0x3c859b17	0.016309304
185	0x3c7fdaa5	0.015616094
186	0xbdc1cafc	-0.09462544
187	0x3d62fb4a	0.05541543
188	0x3bf44a67	0.0074551585
189	0x3d0abd6f	0.033872064
190	0x3d173826	0.03691878
191	0xbd5ae8d4	-0.0534447
192	0x3d8e6412	0.06952681
193	0xbdcf34f6	-0.10117523
194	0xbe219867	-0.15780793
195	0xbda36d4a	-0.079798296
196	0x3d8f049d	0.06983302
197	0xbd14c1a3	-0.03631748
198	0xbd6ab32b	-0.057299774
199	0xbc3e9133	-0.011631298
200	0x3d984a55	0.07436053
201	0xbdb0efcd	-0.08639488
202	0xbc3b6a42	-0.011438908
203	0x3cafec0c	0.02147486
204	0x3de95807	0.11393743
205	0xbc69a9ce	-0.014261676
206	0xbd938436	-0.072029516
207	0x3baecc35	0.005334402
208	0xbc9ea143	-0.019364005
209	0xbcc624dd	-0.0241875
210	0x3c461e16	0.012092134
211	0xbe22780a	-0.15866104
212	0x3d39254b	0.04520158
213	0xbdd336f6	-0.10313217
214	0x3e09ef09	0.13470091
215	0xbde13b47	-0.109976344
216	0xbd30bfc7	-0.043151643
217	0xbd5688d1	-0.052376572
218	0xbe1dd710	-0.15414071
219	0x3bd17ccf	0.006393052
220	0x3e1fdb02	0.15610889
221	0x3d1cb0c1	0.038254503
222	0x3d1042b6	0.03521987
223	0x3d3ef7db	0.046623092
224	0x3e1d0f59	0.15337886
225	0x3db366d3	0.087598465
226	0x3d9f24e9	0.07770712
227	0xbd00b223	-0.031419884
228	0x3d2721d1	0.040803734
229	0x3d961544	0.07328275
230	0x3a4ccc65	0.00078124396
231	0xbe16ff0c	-0.1474573
232	0x3e289fa9	0.16467156
233	0x3db93380	0.09043026
234	0xbd0f1e60	-0.034941077
235	0x3c0f7539	0.008755975
236	0x3d94400e	0.0723878
237	0x3d63148e	0.055439524
238	0x3cbb8271	0.022889348
239	0x3dbecff2	0.09317006
240	0x3c07f4f1	0.008298145
241	0x3d75ac9c	0.059979066
242	0x3e250b6f	0.16117643
243	0xbd2d4edf	-0.042311545
244	0x3ce8bf6a	0.028411586
245	0xbdc1f106	-0.094698
246	0xbe2745ac	-0.16335171
247	0x3d298175	0.041383225
248	0x3d679c04	0.056545272
249	0x3d8ad721	0.06779314
250	0x3da02a25	0.078205384
251	0xbe1d1f80	-0.15344048
252	0xbc823521	-0.015894474
253	0xbd56f144	-0.052476183
254	0xbded1297	-0.11575811
255	0xbcf2ef2f	-0.029655067

layers.1.weight_hh_l0 f4 [192, 64]
0	0x3d975003	0.07388308
1	0xbd391d4c	-0.045193955
2	0x3bf44405	0.0074543976
3	0x3dec00c5	0.11523584
4	0x3b8a18f8	0.0042144023
5	0x3d7592df	0.05995452
6	0xbd10721b	-0.03526507
7	0xbde09adb	-0.10967036
8	0xbbb6d456	-0.0055795116
9	0xbdcfc2f6	-0.10144608
10	0xbd905a01	-0.07048417
11	0x3d0bfa93	0.034174513
12	0xbdad69cf	-0.08467447
13	0xbdb83ff7	-0.08996575
14	0x3da0bb55	0.07848231
15	0x3d3259bf	0.04354262
16	0xbd85f49b	-0.065407954
17	0x3e09515e	0.13409945
18	0x3d923c71	0.071404345
19	0x3c9b417f	0.01895213
20	0x3d8f825e	0.070072874
21	0xbd6d1fc3	-0.05789162
22	0x3dfbad5e	0.122889265
23	0xbab17633	-0.0013539254
24	0x3d914a3d	0.07094238
25	0x3e11174a	0.1416904
26	0x3bd5cf48	0.006524954
27	0x3db1196f	0.08647429
28	0x3ce1c465	0.027559469
29	0x3cdb73b5	0.026788572
30	0x3decda22	0.11565043
31	0xbd228fa6	-0.039687775
32	0x3cc6a995	0.024250785
33	0x3d7fe5f0	0.062475145
34	0xbc1b1a30	-0.009466693
35	0x3d962210	0.07330716
36	0xbde1a92e	-0.110185966
37	0xbc0e9e3b	-0.008704717
38	0x3d8c78ca	0.06858976
39	0xbcc67a02	-0.0242281
40	0xbdec015c	-0.11523697
41	0xbdd1dc6a	-0.10247119
42	0xbd815c80	-0.06316471
43	0x3dac7f9e	0.084227785
44	0x3cf18050	0.02948013
45	0xbdd4ef8b	-0.10397252
46	0x3c15ee18	0.009151004
47	0xbdab94f4	-0.0837802
48	0xbd5d1a0c	-0.05397992
49	0x3d8a8b85	0.067648925
50	0x3dfd5ef1	0.12371624
51	0xbd818b1e	-0.063253626
52	0xbc383e7d	-0.011245367
53	0xbb3a8d1b	-0.0028465453
54	0x3dbe4e82	0.09292318
55	0xbdf3ebb4	-0.11910191
56	0x3dc297e5	0.09501628
57	0x3d97b224	0.074070245
58	0x3d4f091d	0.0505458
59	0xbd566792	-0.052344866
60	0x38c10568	9.203964e-05
61	0xbaebec97	-0.0017999586
62	0x3d3cce8a	0.04609541
63	0xbd954975	-0.072894014
64	0x3d4dd2eb	0.050249975
65	0x3dade68d	0.0849124
66	0xbce9f81e	-0.028560694
67	0xbd08059b	-0.03320847
68	0xbcb8d2fa	-0.022561539
69	0xbdb47dc9	-0.08813054
70	0x3db17016	0.08663957
71	0xbc164215	-0.009171029
72	0xba634de0	-0.0008670967
73	0x3da5faa5	0.08104447
74	0x3d430e08	0.047620803
75	0x3cb04d84	0.021521337
76	0x3d616584	0.055028453
77	0x3d875c30	0.0660938
78	0x3ddd87dd	0.108169295
79	0x3d8dfec3	0.069333576
80	0xbc035962	-0.008016916
81	0xbd9e10a2	-0.07718016
82	0x3e1522f7	0.1456412
83	0x3dfba5f7	0.12287515
84	0x3dc11941	0.09428645
85	0x3dd10bff	0.10207366
86	0xbe0c79ea	-0.13718382
87	0xbd87adc3	-0.06624939
88	0x3ce7832b	0.028260788
89	0xbd54867f	-0.051886078
90	0xbd35dbb3	-0.044398975
91	0x3cc21e92	0.023696218
92	0x3c94cea5	0.018164942
93	0x3c29e4d8	0.010369502
94	0x3e0b92f9	0.13630284
95	0xbcb75420	-0.022378981
96	0x3db20505	0.08692364
97	0xbd02bf95	-0.031920988
98	0xbc3b256c	-0.011422496
99	0xbd0ee76e	-0.034888677
100	0xbd3f250f	-0.0466662
101	0x3e19fcc9	0.15037836
102	0xbdcd5cb8	-0.1002745
103	0xbde36ad6	-0.11104362
104	0xbd3a9ed2	-0.04556162
105	0xbd735f9f	-0.059417363
106	0x3d962710	0.07331669
107	0x3d1eb2c5	0.038744707
108	0x3d9b1874	0.075730234
109	0xbd801ae6	-0.062551305
110	0x3da99b96	0.08281629
111	0x3d120be3	0.035655867
112	0xbe077b86	-0.13230714
113	0x3cc45fbc	0.023971431
114	0x3ced435a	0.02896278
115	0x3de182d0	0.11011279
116	0xbd835961	-0.06413532
117	0xbcc58a74	-0.024113871
118	0xbda2eca5	-0.079552926
119	0x3c7eabcc	0.015543889
120	0xbcb01f06	-0.021499168
121	0xbd26e8a3	-0.040749203
122	0xbd4c41be	-0.049867384
123	0xbc36447e	-0.011124728
124	0x394bb390	0.00019426481
125	0x3dd2617c	0.102725
126	0x3d8dcef6	0.0692424
127	0x3e26b981	0.16281702
128	0xbddb5b20	-0.1071074
129	0xbd8b0730	-0.0678848
130	0xbd6d713f	-0.057969328
131	0xbc9610ad	-0.018318499
132	0xbdf02f00	-0.117277145
133	0xbcba8783	-0.022769695
134	0x3d784139	0.060609076
135	0xbde1270e	-0.10993777
136	0x3dcb5bab	0.09929594
137	0x3cd5fe7c	0.026122324
138	0xbdae2439	-0.08503003
139	0x3da6da6e	0.08147131
140	0xbe1043ca	-0.1408836
141	0x3d697572	0.05699677
142	0xbd4c8081	-0.04992724
143	0xbd527de6	-0.051389597
144	0x3bc8fd33	0.0061336993
145	0xbdadd1bb	-0.084872685
146	0x3cccb374	0.024987914
147	0xbd5e3f9c	-0.05425988
148	0x3da14f28	0.07876426
149	0xbd2da2f1	-0.04239172
150	0x3da0d726	0.07853536
151	0xbd57df30	-0.052703083
152	0x3dfb080c	0.12257394
153	0x3d53c0b1	0.051697437
154	0xbd23178c	-0.039817378
155	0x3bde6ab3	0.006787622
156	0xbd83d2fc	-0.064367265
157	0x3d3d37ce	0.046195798
158	0x3dea67dd	0.114455916
159	0x39f4e286	0.0004670808
160	0x3d970ace	0.07375108
161	0xbd1182e6	-0.035525225
162	0x3dd2f8f0	0.10301387
163	0x3d8b1f3a	0.06793065
164	0x3d208036	0.03918477
165	0x3c6ff4de	0.014645783
166	0xbd080f12	-0.033217497
167	0xbcd80c8e	-0.026373174
168	0x3dd59b8a	0.10430057
169	0x3cd7b235	0.026330093
170	0x3d9b6887	0.075882964
171	0xbd3af066	-0.045639418
172	0x3d3632fe	0.044482224
173	0x3d24718c	0.04014735
174	0x3d80a3ed	0.06281266
175	0xbd4ae93c	-0.049538836
176	0xbd966a44	-0.07344487
177	0xbd0a5dff	-0.033781048
178	0xbdd20ff9	-0.10256953
179	0x3d28da66	0.041223906
180	0xbdd4c985	-0.10389999
181	0xbdd0581f	-0.10173058
182	0x3d74aa5e	0.059732787
183	0x3d811621	0.06303049
184	0xbc829a2b	-0.015942654
185	0x3e058d2f	0.13042139
186	0x3da88138	0.082277715
187	0xbdc66888	-0.096879065
188	0x3d69d324	0.057086125
189	0xbdaff3e4	-0.0859144
190	0xbd2426e5	-0.040076155
191	0x3bc333e7	0.005957115
192	0x3b116f04	0.0022191415
193	0xbcd6dcc6	-0.02622832
194	0xbdb97d13	-0.09057059
195	0xbd02bde1	-0.031919364
196	0x3db6d877	0.08928006
197	0x3da43c76	0.080193445
198	0xbcc40d7c	-0.023932211
199	0x3da795c6	0.08182864
200	0xbdf8de39	-0.121517606
201	0xbd2d6c25	-0.042339463
202	0xbd1f1671	-0.03883976
203	0x3cf766cd	0.030200386
204	0x3dca176b	0.09867748
205	0xbd0827a1	-0.033240918
206	0x3cb31840	0.02186215
207	0x3e0372cd	0.12836762
208	0x3d541579	0.05177829
209	0xbdc6752f	-0.0969032
210	0x3e004fc5	0.1253043
211	0xbdad0af1	-0.084493525
212	0x3d2f6708	0.042822868
213	0xbc7e3dfa	-0.015517706
214	0x3df9ce19	0.12197513
215	0x3df954fc	0.121744126
216	0xbdc38cd6	-0.09548347
217	0x3dcefd74	0.10106936
218	0x3da44e64	0.08022764
219	0x3d9ed7e4	0.077560216
220	0x3dc528ee	0.09626947
221	0x3d779a45	0.060449857
222	0xbc593152	-0.013256388
223	0xbc4b4962	-0.012407633
224	0xbc37f667	-0.0112281805
225	0xbca6bb07	-0.020352853
226	0xbe0b1384	-0.13581663
227	0xbcee2d09	-0.029074209
228	0x3de5315a	0.11191054
229	0x3d8e9e0e	0.0696374
230	0xbdceabf4	-0.10091391
231	0xbac2930e	-0.0014844851
232	0xbe02d451	-0.12776305
233	0xbc5d3062	-0.013500305
234	0x3dc71b05	0.097219504
235	0xbe048a94	-0.12943488
236	0x3dcd9cdf	0.100396864
237	0x3d9f86c5	0.07789377
238	0xbd970768	-0.073744595
239	0x3d6b2a81	0.05741358
240	0xbe14495f	-0.14481114
241	0x3d1c2211	0.038118426
242	0x3e1e9979	0.15488233
243	0x3db4aeb1	0.08822382
244	0xbcb734bf	-0.022364018
245	0x3d9eb0c0	0.07748556
246	0xbdb42bb6	-0.087974
247	0xbdd5c881	-0.10438634
248	0xba342af8	-0.0006872858
249	0x3db87e0a	0.09008415
250	0xbdb4f342	-0.0883546
251	0xbd9f9a60	-0.077931166
252	0x3d5d431d	0.054019082
253	0xbe01123b	-0.1260461
254	0xbcd90112	-0.026489768
255	0xbd8f0209	-0.0698281

layers.1.bias_ih_l0 f4 [192]
0	0x3e19e04c	0.15026969
1	0xbcb6d7ba	-0.022319663
2	0x3c56d823	0.013113054
3	0x3cdb5a2d	0.026776398
4	0x3d9624fe	0.073312744
5	0xbd2b9c3e	-0.04189705
6	0xbdc7687b	-0.09736725
7	0x3d67680f	0.056495722
8	0x3e20b883	0.15695386
9	0xbd7f3aaa	-0.062311806
10	0xbda1b7e8	-0.078964055
11	0x3dbaf5bb	0.091289006
12	0x3b735424	0.003712901
13	0x3d3b8cb6	0.04578849
14	0x3e17391a	0.14767876
15	0x3ce6589d	0.028118426
16	0xbab6017c	-0.001388594
17	0x3ce2cbf3	0.027685141
18	0x3c52199e	0.01282349
19	0xbcfed062	-0.031105224
20	0x3cadea71	0.021229954
21	0xbaafea29	-0.0013421226
22	0xbb8cd3c1	-0.004297704
23	0x3d9b0d06	0.075708434
24	0x3c9a8474	0.018861987
25	0x3e0ccca7	0.13749944
26	0x3df71e4e	0.12066327
27	0xbd28f7a8	-0.04125181
28	0x3d76a327	0.060214188
29	0x3debbac7	0.11510234
30	0xbdaca711	-0.08430303
31	0xbddda5da	-0.10822649
32	0x3dfe4fa2	0.124175325
33	0x3b9c1ee7	0.004764426
34	0xbdb859a8	-0.090014756
35	0xbd42d582	-0.0475669
36	0x3e88449a	0.2661484
37	0xbd304dbc	-0.043042883
38	0x3d7d899f	0.061898824
39	0x3e1f0e44	0.15532786
40	0x3c2ac8f0	0.010423884
41	0xbd859fab	-0.06524595
42	0xbd92c1df	-0.07165884
43	0x3be364d7	0.0069395113
44	0x3dd34d10	0.10317433
45	0x3e2a80e1	0.16650726
46	0x3db92926	0.090410516
47	0x3b150f32	0.0022744653
48	0x3d87f475	0.06638423
49	0x3dabecb8	0.0839476
50	0x3d0246f8	0.031805962
51	0xbdbb7023	-0.09152248
52	0x3e62b74f	0.22140239
53	0x3da6e854	0.08149782
54	0xbc65081e	-0.013978986
55	0x3d21a91a	0.03946791
56	0x3b62f971	0.0034633542
57	0x3dbdbab5	0.09264127
58	0x3dd1b01e	0.1023867
59	0x3d4dea04	0.050272003
60	0xbd5ceb8f	-0.053935584
61	0xbd04aba0	-0.032390237
62	0x3c8f21f1	0.01747224
63	0x3c4a2664	0.012338255
64	0xbe337ae5	-0.1752735
65	0xbd9c5c60	-0.07634807
66	0xbe27329b	-0.16327898
67	0xbc802b4b	-0.015645644
68	0xbe1b0731	-0.15139462
69	0xbd57c89b	-0.052681547
70	0xbdd5beef	-0.10436808
71	0xbbc89e03	-0.006122352
72	0xbdbeb883	-0.093125366
73	0xbe48e865	-0.19619901
74	0xbdb22308	-0.08698088
75	0xbd2bc8b0	-0.041939437
76	0xbe050457	-0.12989937
77	0xbe6cd49e	-0.23127982
78	0xbdbd4417	-0.09241503
79	0xbde13b7a	-0.109976724
80	0xbe8ae6fa	-0.27129346
81	0x3b1e1249	0.0024119786
82	0xbdf128ba	-0.11775346
83	0xbe36a6f7	-0.1783713
84	0xbe14d281	-0.14533426
85	0xbdf288ff	-0.11842536
86	0x3d99f9fe	0.07518385
87	0xbc01386c	-0.007886987
88	0xbdff7e10	-0.124752164
89	0xbe247425	-0.1605993
90	0xbc88307c	-0.016624682
91	0xbe1d72c3	-0.1537581
92	0xbea32f6d	-0.3187212
93	0xbe1e39eb	-0.15451781
94	0xbe2faa73	-0.17154865
95	0x3d29b71f	0.041434404
96	0xbe9db506	-0.30802172
97	0xbe5402b5	-0.20704158
98	0xbe3769e3	-0.17911486
99	0xbda891a9	-0.082309075
100	0xbe89afa9	-0.2689183
101	0xbd37987b	-0.04482315
102	0x3dae3a1f	0.085071795
103	0xbe4de7c3	-0.20107941
104	0xbe791cac	-0.24327344
105	0x3ca4cc50	0.020116955
106	0xbbb74dce	-0.005593992
107	0xbbd9fad3	-0.006652215
108	0xbdab9bca	-0.08379324
109	0xbe13b9a8	-0.14426291
110	0x3dcc18cf	0.09965669
111	0xbd2f59a7	-0.04281011
112	0xbdee8e12	-0.116481915
113	0xbbe68bfe	-0.0070357313
114	0xbe46d76a	-0.19418111
115	0xbd81ef95	-0.06344525
116	0xbe9a8755	-0.30181375
117	0xbb1adda3	-0.002363064
118	0xbde007e1	-0.10939003
119	0xbd853ef7	-0.0650615
120	0x3d219375	0.039447267
121	0xbdd87e21	-0.10570932
122	0xbbfbda41	-0.00768593
123	0xbe70d21c	-0.2351765
124	0xbcdca1ea	-0.026932675
125	0xbdd5ea10	-0.104450345
126	0x3d646247	0.055757787
127	0xbdbfcff8	-0.09365839
128	0x3d7da7e5	0.061927695
129	0x3d7b06a5	0.061285634
130	0xbdc9befd	-0.09850881
131	0x3ba668a2	0.005078391
132	0x3d05147b	0.032490235
133	0x3e164238	0.14673698
134	0x3dc25d6f	0.09490477
135	0xbe20c88f	-0.15701507
136	0x3d22223a	0.039583422
137	0xbe2842ae	-0.16431686
138	0xbd93e32b	-0.07221063
139	0x3d3c6cbd	0.04600214
140	0x3df25c80	0.11834049
141	0xbe29ffe5	-0.16601522
142	0x3dd354fe	0.10318945
143	0x3e020f0c	0.12701052
144	0xbd85c922	-0.06532504
145	0xbdd75969	-0.105151005
146	0x3de993e2	0.114051595
147	0x3d9f119a	0.07767029
148	0x3e1485a7	0.1450411
149	0xbd7a4e69	-0.061109934
150	0x3da9a3f4	0.08283225
151	0x3db117cc	0.08647117
152	0xbe353f50	-0.17699933
153	0x3e0a951f	0.13533448
154	0x3e1369dd	0.14395852
155	0xbe199b85	-0.15000732
156	0x3db34b1d	0.08754561
157	0xbc5a4c8a	-0.013323912
158	0x3d4eec9b	0.050518613
159	0x3db83c8f	0.08995926
160	0x3dc8c83f	0.09803819
161	0x3e255b81	0.16148187
162	0xbdf8f5d8	-0.12156266
163	0xbd3f38ba	-0.046684958
164	0x3e1486c8	0.1450454
165	0x3d805c16	0.06267564
166	0xbe2285d2	-0.15871361
167	0xbe129b93	-0.1431716
168	0xbe06c20f	-0.13159965
169	0xbc1bd344	-0.009510819
170	0x3dd8cdd9	0.10586137
171	0xbce7ee2e	-0.028311815
172	0xbc13c6f8	-0.009019606
173	0xbd93405e	-0.071900114
174	0xbda7207f	-0.08160495
175	0xbdfeb5cf	-0.12437021
176	0xbdab33d8	-0.08359498
177	0x3d5150f5	0.051102597
178	0x3dc4a93a	0.0960259
179	0x3e2352bd	0.15949531
180	0x3de1d0cd	0.11026154
181	0xbdf5d3b9	-0.120032735
182	0x3de23f90	0.1104728
183	0xbdc580a3	-0.09643676
184	0xbd0f05e3	-0.034917723
185	0xbd48f09d	-0.04905759
186	0x3d49f4c6	0.0493057
187	0xbdd327e9	-0.10310347
188	0xbd9b8342	-0.07593395
189	0xbd266542	-0.04062391
190	0x3d8b531b	0.068029605
191	0x3d95dcb4	0.073174864

layers.1.bias_hh_l0 f4 [192]
0	0xbc8fab80	-0.017537832
1	0xbc3232ce	-0.010876371
2	0xbe110309	-0.14161314
3	0xbb6ddb05	-0.0036293876
4	0x3da03206	0.07822041
5	0x3df07948	0.117418826
6	0x3d6e6b7d	0.058207978
7	0xbd6c34bd	-0.057667483
8	0x3c4a5dae	0.012351437
9	0xbd7a0148	-0.06103638
10	0x3d93eea0	0.072232485
11	0xbd904af7	-0.070455484
12	0xbc81ef88	-0.015861288
13	0xbd4ecaf8	-0.050486535
14	0xbd40915c	-0.047013626
15	0x3dc77add	0.09740231
16	0x3da4fa62	0.08055569
17	0x39db8fb4	0.00041878002
18	0xbd33d647	-0.043905523
19	0x3d2d232a	0.042269863
20	0x3e1bd261	0.15216972
21	0x39c27ed0	0.00037097046
22	0x3da2b1e6	0.07944088
23	0x3d641cdd	0.05569159
24	0xbdaa10ff	-0.08304023
25	0x3d481ff7	0.04885861
26	0xbc52f2f6	-0.012875309
27	0x3d9e020a	0.07715233
28	0x3e1769fe	0.14786527
29	0x3dcd8adb	0.1003625
30	0x3cbc2825	0.022968361
31	0x3d22fb2f	0.03979033
32	0x3db37076	0.087616846
33	0x3e13386d	0.14376993
34	0x3d4599fe	0.04824256
35	0x3daf1418	0.085487545
36	0x3ea10a76	0.31453294
37	0x3dee7bb0	0.11644685
38	0x3de155fd	0.11002729
39	0x3e224155	0.15845235
40	0x3da1490e	0.07875262
41	0x3e18357d	0.14864154
42	0xbcc59d3f	-0.024122832
43	0x3db76412	0.08954634
44	0x3ddd602e	0.108093604
45	0x3e03ac43	0.12858681
46	0x3df62526	0.12018804
47	0x3cad5945	0.021160731
48	0x3dabf818	0.083969295
49	0x3d1640e7	0.03668299
50	0xbd3c7b75	-0.046016175
51	0x3dd1ce9d	0.102444865
52	0x3e193ac5	0.14963825
53	0xbdb65bf5	-0.08904258
54	0x3dcad9ce	0.09904824
55	0x3d8ce564	0.0687969
56	0x3e0fdaa6	0.14048252
57	0x3da33c02	0.0797043
58	0x3ccb0193	0.024781024
59	0xbc4ad1b6	-0.012379101
60	0x3e1aab83	0.15104489
61	0x3e193d80	0.14964867
62	0xbd61a1c7	-0.055085924
63	0x3db91a6b	0.09038242
64	0x3d0bffa9	0.034179363
65	0xbe2ce2e6	-0.1688343
66	0xbc85192e	-0.016247358
67	0xbc1096dc	-0.00882503
68	0xbd39b91e	-0.045342557
69	0x3d6382f7	0.05554482
70	0xbcc56395	-0.024095336
71	0xbd9edd45	-0.077570476
72	0xbe3f8ec4	-0.18706805
73	0xbe69718c	-0.22797221
74	0xbd9c5532	-0.07633437
75	0xbd7328fd	-0.05936526
76	0xbea29329	-0.317529
77	0xbe2dcd56	-0.1697286
78	0xbe4b26e2	-0.19839051
79	0x3cb3fd83	0.02197147
80	0xbde67031	-0.112518676
81	0xbe3e9dde	-0.18614909
82	0xbb97a4ca	-0.0046277987
83	0xbdd05277	-0.10171979
84	0x3cce7792	0.0252035
85	0xbe74e1cf	-0.23914264
86	0xbdd2bc0c	-0.10289773
87	0xbdd7fb0f	-0.105459325
88	0xbe932e25	-0.28746143
89	0xbd3d0d29	-0.04615513
90	0xbc118593	-0.008881944
91	0xbe21dd37	-0.15807043
92	0xbe6459fd	-0.22299953
93	0xbe8950c4	-0.26819432
94	0xbd1b60b4	-0.03793402
95	0x3cf6125c	0.030038051
96	0xbe27d79d	-0.16390844
97	0xbe1af3d9	-0.15132083
98	0xbe213999	-0.15744628
99	0xbda075f0	-0.07834995
100	0xbe02f2ff	-0.12788008
101	0xbe39f36d	-0.18159266
102	0xbd0d57d7	-0.0345076
103	0xbdeaa02d	-0.11456332
104	0xbe3195a8	-0.17342246
105	0x3c01a056	0.007911762
106	0xbdcda8b5	-0.10041944
107	0xbda8fc0f	-0.08251201
108	0xbd2b2a99	-0.04178867
109	0xbe62b850	-0.22140622
110	0x3d787512	0.060658522
111	0xbd19b21c	-0.037523374
112	0xbe74d93e	-0.23910996
113	0xbbee2bc1	-0.0072683995
114	0xbd824efc	-0.06362721
115	0xbdece00f	-0.11566173
116	0xbe853795	-0.26018968
117	0xbcd514e6	-0.026010942
118	0x3d678b5b	0.056529384
119	0xbe22fa5d	-0.15915819
120	0xbc80afcf	-0.015708832
121	0x3b4cacd8	0.0031230953
122	0xbd4033af	-0.04692429
123	0xbe47c508	-0.19508755
124	0xbdb99609	-0.0906182
125	0x3dad38fa	0.08458133
126	0xbdc51ee3	-0.09625032
127	0xbdf92216	-0.121647045
128	0x3d0b941c	0.034076795
129	0xbe004a08	-0.1252824
130	0x3d6d546a	0.05794183
131	0x3e2d9285	0.16950424
132	0xbe1b213f	-0.15149401
133	0x3d177d90	0.03698498
134	0xbd5560fa	-0.052094437
135	0x3b2153cf	0.0024616604
136	0xbda174c8	-0.078836024
137	0x3d447281	0.047960762
138	0x3bb95be9	0.0056567085
139	0x3cd4dc54	0.025983967
140	0x3e329bcb	0.17442243
141	0xbdd3b660	-0.1033752
142	0x3e27c0c3	0.16382127
143	0xbcea815a	-0.028626133
144	0xbe2b8b06	-0.16752252
145	0xbb85391e	-0.004065647
146	0x3db78cd1	0.089624055
147	0x3d8b50d2	0.068025246
148	0x3e08defd	0.13366313
149	0xbe2dd0a4	-0.16974121
150	0xbdab0deb	-0.08352264
151	0x3d6428d1	0.055702988
152	0xbd12bc0a	-0.03582386
153	0x3cf8cba9	0.03037055
154	0x3d46c89b	0.048531156
155	0xbe21a2f7	-0.15784822
156	0x3d8605f1	0.06544102
157	0x3e3971ed	0.18109865
158	0xbcf89d43	-0.030348426
159	0xbd692861	-0.056923274
160	0x3c21d7bf	0.009878098
161	0x3db4ea58	0.0883376
162	0xbd13dc6e	-0.03609889
163	0xbdb13ac2	-0.08653785
164	0x3e8c4316	0.27394933
165	0xbd73d912	-0.059533186
166	0x3ca745f2	0.020419095
167	0xbd0bd6b1	-0.034140293
168	0x3cc9e8db	0.024647167
169	0xbda9d3b3	-0.082923315
170	0x3d056361	0.03256548
171	0x3db36e24	0.08761242
172	0x3dd7c986	0.105364844
173	0xbe0b8f8c	-0.13628978
174	0xbdc09298	-0.094029605
175	0xbdc87e89	-0.0978976
176	0x3ca12770	0.019672126
177	0x3e11e1a5	0.14246233
178	0x3e0d601f	0.13806199
179	0xbd8a9afa	-0.06767841
180	0x3e5bf208	0.21479046
181	0x3ba0e3f0	0.004909985
182	0x3d96bb5e	0.07359956
183	0xbdf41246	-0.11917548
184	0x3e0daaee	0.13834736
185	0xbd94c6f8	-0.07264513
186	0x3c81bf88	0.0158384
187	0xbd9e7cf1	-0.077386744
188	0xbdf1e9d2	-0.11812176
189	0xbe081a7a	-0.1329135
190	0x3da48c50	0.08034575
191	0x3bb74651	0.005593099
